model/lstm_model.pth (torch, 213419 bytes, 10 tensors)

lstm.weight_ih_l0 f4 [256, 8]
-0.008405471 -0.009530366 0.096556105 0.08271471 -0.0022830083 0.09276377 -0.10964856 -0.03570943
0.008050688 -0.030724093 0.06595869 0.08353773 0.1399154 -0.073833294 0.09273253 -0.07617962
0.11997243 -0.04648529 0.06679751 -0.04433326 0.113538146 -0.0795327 0.0353334 0.06039899
-0.0020216552 0.17448716 0.07127786 0.036513 -0.09918163 -0.047063906 0.051289305 0.049582962
0.0854958 -0.05100954 -0.021030772 -0.026313648 -0.081246756 -0.003466063 0.017832782 -0.08676282
0.033659957 0.12142535 -0.0893429 0.12287978 0.068379454 0.12115762 -0.110437654 0.047637705
-0.04694516 -0.09797315 0.017412493 0.024773387 0.0050351243 -0.10991575 0.08417736 0.112027176
0.060479846 -0.09891499 0.09020115 -0.081274375 -0.07174264 0.038067076 0.0010968013 0.05448148
0.0897888 0.06834976 0.09270007 -0.0218749 -0.023355419 -0.10974519 -0.13401778 -0.14188862
0.08223506 0.027993234 -0.01893917 0.026492858 -0.008491598 0.05301775 -0.031037748 -0.037252966
0.098142706 -0.0040273285 -0.033482034 0.04142913 -0.12832505 -0.020588607 0.0934454 -0.043503113
0.04306271 -0.05838097 -0.022359448 -0.0753069 -0.080813296 -0.0968036 0.062343046 0.023827363
0.0037136124 0.08868851 0.100476965 0.0605098 0.09570901 0.04918383 -0.011108592 -0.0139811775
-0.05309436 -0.062789015 -0.09167097 0.082268156 -0.08425602 0.08758388 -0.09219353 -0.084339574
-0.06372604 0.10348816 0.13051717 0.04426152 -0.03403083 -0.09485845 -0.02716023 -0.04011949
-0.13930486 0.07686324 0.07736029 0.06905366 0.0781621 0.03613445 -0.12466765 -0.052916184
0.08142742 0.068824194 0.12146258 0.12657946 0.054402832 -0.0147037525 -0.013066712 -0.0121885035
-0.1164055 0.069637604 -0.10804034 -0.06570448 -0.069637984 -0.056480452 0.0017581095 -0.015114962
-0.06957041 -0.036929943 0.044074923 -0.108757645 0.030330395 0.0045049298 0.10540063 0.06148222
-0.024683252 0.044988405 0.032184392 -0.059700307 -0.014475317 0.10390996 0.08946948 -0.018171337
-0.054377437 0.0008818487 0.05324673 0.011337861 0.05096308 0.052047417 0.041594822 -0.065068364
-0.05363273 -0.06829796 -0.033102907 -0.14914034 0.04391104 -0.0884367 -0.08032361 -0.012549048
0.0976027 -0.11007755 -0.010167853 -0.03581968 0.035983518 0.01758139 0.09715457 0.008076569
-0.12844065 -0.06655026 -0.106247954 -0.091808654 -0.12758052 -0.0014774004 -0.0770882 -0.1011179
0.049193937 -0.010606039 -0.0674806 -0.0004608288 -0.09202696 0.036900133 0.10111515 0.06966165
0.042068373 -0.10162563 -0.026133163 -0.017019706 -0.084986344 0.04251736 -0.056052204 -0.075488985
-0.05143902 0.12132529 0.03613638 0.028895166 -0.018904967 -0.0484012 -0.013950318 -0.019342061
-0.023000259 -0.029506939 0.05745321 -0.03479897 0.09104544 -0.04283722 0.0042810747 0.010361434
0.06696529 0.09638141 -0.0695787 -0.12804803 -0.0015622743 0.08379387 -0.09635188 -0.030301536
-0.097818345 -0.06774142 0.115120314 -0.020633558 -0.009953625 -0.06878572 0.070822276 -0.105841994
-0.104656085 0.02812421 0.12466407 -0.012819117 -0.06584381 0.0190214 -0.04687158 0.069109984
-0.046005353 0.03227958 -0.07082332 -0.0014618846 -0.07955177 -0.0700803 -0.053574137 0.052681502
00000000: 1ab7 09bc 4125 1cbc 35bf c53d 5466 a93d
00000010: 869e 15bb eefa bd3d 6d8f e0bd 0d44 12bd
00000020: 08e7 033c 18b1 fbbc 5a15 873d d415 ab3d
00000030: fc45 0f3e e935 97bd 8dea bd3d 1004 9cbd
00000040: 1bb4 f53d 5c67 3ebd 22cd 883d cb96 35bd
00000050: b086 e83d 0ae2 a2bd c1b9 103d ee64 773d
00000060: bf7d 04bb c3ac 323e 20fa 913d a88e 153d
00000070: bd1f cbbd 15c6 40bd bc14 523d 8117 4b3d
00000080: 6c18 af3d 61ef 50bd ba48 acbc b88f d7bc
00000090: b364 a6bd e326 63bb 0e16 923c b5b0 b1bd
000000a0: 06df 093d dbad f83d 69f9 b6bd 65a8 fb3d
000000b0: 870a 8c3d 7c21 f83d 232d e2bd c11f 433d
000000c0: 9149 40bd 26a6 c8bd a5a4 8e3c 8ff1 ca3c
000000d0: affd a43b 821b e1bd 2e65 ac3d 816e e53d
000000e0: b7b9 773d f193 cabd 61bb b83d 2e73 a6bd
000000f0: ceed 92bd 39ec 1b3d 8bc2 8f3a f927 5f3d
00000100: 31e3 b73d f5fa 8b3d 89d9 bd3d fe32 b3bc
00000110: dd53 bfbc 16c2 e0bd f53b 09be 404b 11be
00000120: db6a a83d 1152 e53c 5126 9bbc 8d07 d93c
00000130: 5820 0bbc 2429 593d e042 febc 9196 18bd
00000140: 0bff c83d aef7 83bb 7524 09bd 97b1 293d
00000150: a467 03be 70a9 a8bc 4d60 bf3d 5230 32bd
00000160: 8662 303d e220 6fbd 292b b7bc 813a 9abd
00000170: 7181 a5bd f740 c6bd 6c5b 7f3d 9a31 c33c
00000180: 1460 733b 52a2 b53d dec6 cd3d 20d9 773d
00000190: 1603 c43d fc74 493d d000 36bc 4f11 65bc
000001a0: 7979 59bd 8797 80bd fdbd bbbd 357c a83d
000001b0: 6c8e acbd 2d5f b33d f6cf bcbd 3aba acbd
000001c0: cc82 82bd 9af1 d33d 4ba6 053e 914b 353d
000001d0: e963 0bbd 2645 c2bd 217f debc 5654 24bd
000001e0: efa5 0ebe 796a 9d3d 126f 9e3d 016c 8d3d
000001f0: 7313 a03d b801 143d c151 ffbd a4be 58bd
00000200: 6bc3 a63d b3f3 8c3d 60c1 f83d 0c9e 013e
00000210: 81d5 5e3d 02e8 70bc c315 56bc 4ab2 47bc
00000220: 0266 eebd 299e 8e3d 4144 ddbd 1290 86bd
00000230: 5c9e 8ebd 0c58 67bd 5e70 e63a bfa4 77bc
00000240: ee7a 8ebd da43 17bd e887 343d 54bc debd
00000250: 7377 f83c 179e 933b 49dc d73d c8d4 7b3d
00000260: 8834 cabc c345 383d c8d3 033d 4f88 74bd
00000270: e129 6dbc bfce d43d c63b b73d 0edc 94bc
00000280: e0ba 5ebd dd2b 673a 3e19 5a3d 70c2 393c
00000290: aabe 503d ac2f 553d 555f 2a3d 9042 85bd
000002a0: fead 5bbd cddf 8bbd ea96 07bd 3fb8 18be
000002b0: 10dc 333d 4d1e b5bd b480 a4bd 869a 4dbc
000002c0: ede3 c73d 5770 e1bd 1197 26bc a8b7 12bd
000002d0: 7463 133d d906 903c faf8 c63d 9653 043c
000002e0: f285 03be 814b 88bd 8798 d9bd 2d06 bcbd
000002f0: 78a4 02be 55a5 c1ba 6be0 9dbd e716 cfbd
00000300: 957f 493d f4c4 2dbc 4533 8abd 659b f1b9
00000310: a178 bcbd 9824 173d 7615 cf3d c4aa 8e3d
00000320: e34f 2c3d 1921 d0bd 3715 d6bc e96c 8bbc
00000330: 520d aebd af26 2e3d ff96 65bd f899 9abd
00000340: b9b1 52bd 6579 f83d be03 143d 8eb5 ec3c
00000350: 97de 9abc 5640 46bd e08f 64bc 3e73 9ebc
00000360: 0a6b bcbc 89b8 f1bc 0f54 6b3d 5d89 0ebd
00000370: 0876 ba3d 1576 2fbd 4248 8c3b 01c3 293c
00000380: 1925 893d 9e63 c53d 477f 8ebd 061f 03be
00000390: 3ac5 ccba 1f9c ab3d 2254 c5bd ed3a f8bc
000003a0: fc54 c8bd 03bc 8abd 33c4 eb3d b507 a9bc
000003b0: 8714 23bc 87df 8cbd 450b 913d b0c3 d8bd
000003c0: ee55 d6bd be64 e63c e04f ff3d 4607 52bc
000003d0: 1fd9 86bd c4d2 9b3c 6afc 3fbd 8989 8d3d
000003e0: 1c70 3cbd 9837 043d d10b 91bd b59c bfba
000003f0: 0aec a2bd 4386 8fbd 8e70 5bbd 8fc8 573d

lstm.weight_hh_l0 f4 [256, 64]
-0.062380813 0.019058563 0.082500145 -0.13896699 -0.049546406 -0.08786443 0.05972199 -0.019524325
0.12319487 0.08606563 0.051733546 0.077491745 -0.09416318 -0.08168227 -0.15402448 -0.04493486
0.023813719 0.010783012 0.09633742 -0.05099026 -0.09241631 -0.026993064 -0.027101945 0.0344945
-0.116701424 0.08214296 0.015057485 -0.12293304 0.041514676 -0.096592315 0.104511015 -0.06886065
0.046547826 -0.1468625 -0.053025346 0.026511287 -0.033007924 -0.055161808 -0.0026963584 -0.1397501
-0.09073933 -0.08890957 0.06138633 -0.045267977 0.028806893 0.054205433 0.040156264 0.10422969
0.047780953 -0.10359949 0.11888462 0.074311726 -0.09917581 -0.063185535 -0.07382123 0.048490673
0.0016254777 0.095912196 0.0252505 0.076027125 -0.113156445 0.073481284 0.05890495 -0.10407765
0.09860355 0.0669352 -0.07767067 0.037136823 -0.014984974 0.062208686 -0.0971234 -0.011743403
0.06055804 0.048404533 0.030976871 -0.111129686 -0.00014735795 -0.08659734 0.06290609 0.024056757
0.10814885 -0.1590591 0.13783237 -0.027337983 -0.1280283 -0.17543711 -0.005736695 0.008746908
-0.07069447 -0.019255305 -0.09284564 -0.040595237 -0.018024325 0.116524205 -0.02000765 -0.073085666
0.069399774 0.07127032 -0.08566804 -0.048680693 0.03699034 -0.41168562 -0.08853314 0.114502825
-0.06434558 -0.03605376 0.037552036 0.11441301 -0.07076259 0.047088694 0.064267464 -0.030290306
0.007052749 -0.0467327 -0.078022026 0.1033155 -0.12981324 0.100400515 -0.061362397 0.029790975
-0.0036625941 -0.057192184 -0.1173303 0.12085444 -0.09597264 0.11207801 0.10119604 -0.08806657
0.11766947 -0.066321224 0.013849447 -0.13533303 0.12956397 0.04788067 0.0009930866 -0.08468394
-0.04130733 0.03772754 -0.052383985 0.036061645 0.009339521 0.061688267 0.014157925 -0.092623845
0.05813955 0.060522154 -0.08927571 0.030938275 -0.06901498 0.064326674 0.12756062 -0.11896935
-0.04575585 0.10171432 -0.096375264 -0.051418632 -0.031760614 0.012510677 0.111373946 0.05814957
-0.013124114 0.02768301 0.047515005 0.037986815 -0.06574103 -0.11694033 -0.050655205 0.086253084
0.04011252 -0.07538748 0.019293621 0.014147056 0.090275265 0.026477724 0.06449478 -0.072769694
0.05454396 0.14846654 0.07820335 0.104270816 -0.10186999 0.08951701 -0.07712363 0.021793861
-0.072285116 -0.048152782 -0.026734667 -0.11027199 -0.027709004 -0.0704169 -0.014207228 0.037231144
-0.08302021 0.0477899 -0.06758451 -0.14508371 0.006945421 -0.0046977736 -0.12862337 0.102339305
-0.01825362 -0.08615998 -0.05051461 -0.026609378 0.08734377 0.23309022 -0.29880992 0.02023941
-0.118637495 0.2686187 0.1420945 -0.2345539 0.25453204 0.06788028 0.03858609 0.07711611
0.03453831 -0.032558303 0.36212236 -0.28056562 -0.16660734 -0.09787863 0.006396339 0.21445751
-0.16319461 -0.08089934 -0.15501413 0.10956748 0.11056993 0.11076531 -0.010899982 -0.13765915
-0.10060773 0.05229784 0.073409125 -0.07908196 0.04815777 0.041882295 0.110828474 0.076339625
-0.1129022 0.031107336 -0.03701515 0.08609993 -0.034655973 -0.21656348 -0.06057134 -0.21666937
-0.07206987 0.09613709 -0.11198342 -0.05197576 -0.15598735 0.20260754 -0.00843833 -0.08789194
00000000: 0683 7fbd b420 9c3c d6f5 a83d 5d4d 0ebe
00000010: 2cf1 4abd 44f2 b3bd 0c9f 743d 7af1 9fbc
00000020: 984d fc3d 2d43 b03d 8ee6 533d feb3 9e3d
00000030: a0d8 c0bd 0949 a7bd 98b8 1dbe 9e0d 38bd
00000040: fd14 c33c 3bab 303c 8e4c c53d 2adb 50bd
00000050: c344 bdbd 8f20 ddbc e604 debc 1b4a 0d3d
00000060: 2801 efbd 913a a83d abb3 763c 51c4 fbbd
00000070: 4b0b 2a3d 31d2 c5bd df09 d63d d006 8dbd
00000080: efa8 3e3d 2063 16be 1b31 59bd 332e d93c
00000090: 5133 07bd 59f1 61bd 63b5 30bb a61a 0fbe
000000a0: 8bd5 b9bd 3816 b6bd 3b70 7b3d ea6a 39bd
000000b0: 6ffc eb3c 8406 5e3d e57a 243d 6076 d53d
000000c0: f6b5 433d f82b d4bd c879 f33d bf30 983d
000000d0: b01c cbbd 6b67 81bd 962f 97bd 289e 463d
000000e0: fb0d d53a 9d6d c43d 23da ce3c 1cb4 9b3d
000000f0: 91be e7bd 5b7d 963d 5146 713d aa26 d5bd
00000100: a8f0 c93d 5215 893d cd11 9fbd c81c 183d
00000110: 8983 75bc 89ce 7e3d a2e8 c6bd 6767 40bc
00000120: b50b 783d d543 463d 35c3 fd3c f697 e3bd
00000130: 1984 1ab9 f259 b1bd e8d4 803d ad12 c53c
00000140: 257d dd3d 64e0 22be ee23 0d3e e8f3 dfbc
00000150: da19 03be c9a5 33be e3fa bbbb 314f 0f3c
00000160: 43c8 90bd 4dbd 9dbc db25 bebd 3147 26bd
00000170: c0a7 93bc 3ea4 ee3d 15e7 a3bc f0ad 95bd
00000180: 7821 8e3d 2cf6 913d ba72 afbd 6865 47bd
00000190: 2f83 173d 75c8 d2be dd50 b5bd 7580 ea3d
000001a0: 9ec7 83bd 1cad 13bd 2ad0 193d 5e51 ea3d
000001b0: faeb 90bd 13e0 403d a99e 833d 6023 f8bc
000001c0: bf1a e73b ca6a 3fbd 03ca 9fbd 1497 d33d
000001d0: c3ed 04be c99e cd3d 2357 7bbd 340c f43c
000001e0: 2208 70bb 5a42 6abd de4a f0bd 8882 f73d
000001f0: 4e8d c4bd 2889 e53d df3f cf3d 3f5c b4bd
00000200: b1fc f03d 6cd3 87bd cae8 623c be94 0abe
00000210: 6bac 043e 851e 443d 752a 823a c66e adbd
00000220: e031 29bd 3188 1a3d 9790 56bd 60b5 133d
00000230: ca04 193c d6ac 7c3d a4f6 673c 92b1 bdbd
00000240: bd23 6e3d 14e6 773d 2fd6 b6bd 4472 fd3c
00000250: ba57 8dbd b4bd 833d 409f 023e 34a6 f3bd
00000260: 7c6a 3bbd 994f d03d 6560 c5bd 589c 52bd
00000270: 6b17 02bd 95f9 4c3c 0618 e43d 3e2e 6e3d
00000280: 8606 57bc 7bc7 e23c 189f 423d 1098 1b3d
00000290: 3ca3 86bd 697e efbd d57b 4fbd 75a5 b03d
000002a0: 074d 243d c064 9abd a80d 9e3c 0ec9 673c
000002b0: 3de2 b83d d0e7 d83c d715 843d 4708 95bd
000002c0: 7d69 5f3d 9d07 183e 1429 a03d f08b d53d
000002d0: 37a1 d0bd b254 b73d fef2 9dbd 0a89 b23c
000002e0: 380a 94bd da3b 45bd a902 dbbc 48d6 e1bd
000002f0: fefd e2bc bc36 90bd 6fc5 68bc af7f 183d
00000300: 8006 aabd 58bf 433d bf69 8abd d390 14be
00000310: 6a96 e33b c8ef 99bb d8b5 03be 4597 d13d
00000320: 9e88 95bc a574 b0bd 68e8 4ebd e9fb d9bc
00000330: 4ae1 b23d 34af 6e3e 9dfd 98be 1fcd a53c
00000340: 37f8 f2bd 6488 893e 3881 113e e62e 70be
00000350: 0652 823e d104 8b3d 730c 1e3d 0def 9d3d
00000360: 0b78 0d3d db5b 05bd 1a68 b93e 4ca6 8fbe
00000370: 1d9b 2abe 9774 c8bd 6198 d13b c09a 5b3e
00000380: 7d1c 27be 8eae a5bd 06bc 1ebe ea64 e03d
00000390: 7d72 e23d ecd8 e23d d795 32bc 85f6 0cbe
000003a0: 6d0b cebd 4336 563d 8657 963d b9f5 a1bd
000003b0: 1541 453d c58c 2b3d 0afa e23d f357 9c3d
000003c0: 4539 e7bd d0d4 fe3c 339d 17bd 2955 b03d
000003d0: 6cf3 0dbd d1c2 5dbe a719 78bd 93de 5dbe
000003e0: 5e99 93bd 86e3 c43d 9057 e5bd 89e4 54bd
000003f0: 26bb 1fbe 5a78 4f3e ec40 0abc b000 b4bd

lstm.bias_ih_l0 f4 [256]
0.09963985 0.03575296 0.10465021 0.007397412 -0.11373718 -0.06258854 -0.03400554 -0.049030066
-0.06534281 0.048598755 0.03492336 0.018620504 -0.04417817 0.10040424 0.080529064 -0.044179577
0.025174458 0.11209632 -0.04889075 0.10804289 0.0034209844 -0.021973385 0.106874235 -0.03089763
0.13108408 -0.053714875 0.039934415 0.09808211 0.1209015 -0.11709885 0.07206075 -0.1058694
-0.0434245 0.027993444 -0.022624848 -0.10607454 -0.07179759 -0.005235447 0.06758783 -0.0768697
-0.036996696 0.004633001 0.0016444921 -0.11139451 0.02113332 0.0156220365 -0.07036618 0.0759022
-0.001519358 0.038862128 -0.0767207 -0.09334763 -0.06974862 0.11055217 0.09204141 -0.072525255
0.079334036 0.0014331779 0.12340992 -0.03229178 -0.13623762 0.04286237 0.14452356 -0.08919918
0.044815816 0.111728236 0.07584691 0.05495681 -0.0064725336 -0.03219718 0.046922732 0.04462854
0.07002463 0.03380386 -0.11927195 -0.044007655 0.1208517 0.12104415 -0.022426652 0.065962255
0.13237412 0.14937796 -0.12604028 0.08681519 -0.037049133 0.06430165 0.0038358502 0.048482288
0.0069913664 -0.041102808 0.06381503 0.013851507 0.059852496 -0.045976575 0.06699399 0.112199835
-0.096693255 0.071074106 0.04234845 -0.03610916 -0.0024110265 0.14012955 -0.104111835 -0.08823183
-0.0070124576 -0.017449275 0.0012651181 0.048836477 0.0517409 0.088921376 0.11500935 -0.064082034
0.006469785 0.033758044 -0.02114626 -0.0905783 0.08650447 0.087996475 0.028920364 0.15578476
0.04455675 -0.014188086 -0.093248405 0.03899409 0.10872315 0.11173625 0.059049405 -0.06660853
0.0017872164 0.0016617343 -0.13907959 0.06115404 0.1110747 0.006218029 0.063781 -2.6440192e-05
0.10022199 -0.09768192 0.01430457 -0.04278915 0.0064828643 -0.040774662 0.040983185 -0.054618616
0.00879796 -0.0076005813 -0.0042544305 -0.047540992 0.026556056 -0.08124632 0.06859813 0.039869208
-0.099222675 -0.055412527 0.061395887 0.042976324 0.022240115 -0.068254255 0.0841474 -0.007129968
0.10486253 0.077844314 0.0062779794 0.0010781052 -0.012866586 0.1343482 0.00079951686 0.019096581
0.13521917 -0.098314635 -0.014354157 0.1131181 -0.101562895 -0.031146746 0.0022060545 -0.044383567
-0.029750276 -0.009682014 -0.07426645 0.10728909 -0.015557164 0.027708253 0.07466034 -0.009216772
0.0888681 0.033293888 -0.048967227 0.1152364 -0.09632727 -0.074381076 0.0605242 0.04448933
0.054737657 0.012620183 0.030209703 0.047554336 0.13541 0.06503287 -0.047681086 -0.08790696
0.09761642 0.06461419 0.10960007 0.097417206 0.13297135 0.05094287 -0.013853855 -0.057239328
-0.080826804 -0.011996201 -0.0975367 -0.044789575 -0.0358773 0.09405344 0.044268783 0.16001238
0.057746887 -0.01043092 0.057917546 -0.006833632 0.06371375 0.067804314 0.12993222 0.005058118
0.08517288 -0.05842152 0.043770596 0.019094227 0.069975555 -0.1106211 -0.005602625 0.10263405
0.04456835 0.1155194 -0.080489025 0.12174796 0.07612779 -0.04378616 0.07354633 -0.058248144
0.05898998 0.0069817994 0.1151491 0.047303837 -0.11628494 -0.03188697 -0.0017628424 0.13373396
0.123147056 -0.025761563 0.007698846 0.018590251 0.101844005 0.030027993 -0.062279236 0.08387214
00000000: fa0f cc3d b271 123d d952 d63d fd65 f23b
00000010: 0aef e8bd 6c2e 80bd 6549 0bbd c0d3 48bd
00000020: 73d2 85bd 7d0f 473d cc0b 0f3d 078a 983c
00000030: 2bf4 34bd bda0 cd3d 6cec a43d a5f5 34bd
00000040: aa3a ce3c c192 e53d ab41 48bd 9745 dd3d
00000050: 9832 603b 8701 b4bc e1e0 da3d 071d fdbc
00000060: e83a 063e 2104 5cbd 4592 233d 46df c83d
00000070: 359b f73d 86d1 efbd 9694 933d 0ed2 d8bd
00000080: e3dd 31bd 8252 e53c bf57 b9bc 9c3d d9bd
00000090: 9d0a 93bd 1d8e abbb 7d6b 8a3d dc6d 9dbd
000000a0: d989 17bd 6ed0 973b 008c d73a ce22 e4bd
000000b0: c91f ad3c 92f3 7f3c 251c 90bd 9d72 9b3d
000000c0: 3225 c7ba e52d 1f3d be1f 9dbd 0b2d bfbd
000000d0: 5dd8 8ebd 2d69 e23d 3580 bc3d 1f88 94bd
000000e0: e279 a23d 78d9 bb3a 57be fc3d 6344 04bd
000000f0: e081 0bbe 7490 2f3d fcfd 133e 0fae b6bd
00000100: ca90 373d c6d1 e43d a055 9b3d 641a 613d
00000110: 8c17 d4bb 31e1 03bd 0d32 403d 6acc 363d
00000120: 1369 8f3d eb75 0a3d da44 f4bd 5f41 34bd
00000130: 1981 f73d ffe5 f73d 19b8 b7bc 3817 873d
00000140: 158d 073e 89f6 183e b410 01be 2acc b13d
00000150: d5c0 17bd 95b0 833d e362 7b3b 5d95 463d
00000160: d517 e53b 6b5b 28bd 74b1 823d 6ef1 623c
00000170: e427 753d ef51 3cbd 2534 893d 07c9 e53d
00000180: 1d07 c6bd 4d8f 913d 9175 2d3d 33e7 13bd
00000190: 5002 1ebb 1f7e 0f3e 9638 d5bd e4b2 b4bd
000001a0: c2c8 e5bb c8f1 8ebc 52d2 a53a c208 483d
000001b0: 44ee 533d 691c b63d 068a eb3d 713d 83bd
000001c0: 7d00 d43b e045 0a3d ec3a adbc 1e81 b9bd
000001d0: 4129 b13d 7f37 b43d 66ea ec3c 0a86 1f3e
000001e0: 2481 363d 2575 68bc 05f9 bebd 44b8 1f3d
000001f0: 3eaa de3d fad5 e43d cadd 713d 0e6a 88bd
00000200: 0841 ea3a 8dce d93a e16a 0ebe a97c 7a3d
00000210: 227b e33d 9cc0 cb3b 9d9f 823d e1cb ddb7
00000220: 3041 cd3d 750d c8bd b75d 6a3c ad43 2fbd
00000230: 356e d43b 5503 27bd fcdd 273d c5b7 5fbd
00000240: 5225 103c 4c0e f9bb c068 8bbb 58ba 42bd
00000250: 168c d93c 7864 a6bd 2d7d 8c3d e54d 233d
00000260: 4235 cbbd 3ff8 62bd 417a 7b3d f107 303d
00000270: e730 b63c e3c8 8bbd 7955 ac3d 82a2 e9bb
00000280: 2bc2 d63d d76c 9f3d 82b7 cd3b 354f 8d3a
00000290: 60ce 52bc 9392 093e ab96 513a 6f70 9c3c
000002a0: e576 0a3e 2f59 c9bd b32d 6bbc 76aa e73d
000002b0: 3500 d0bd 7627 ffbc 7493 103b 8bcb 35bd
000002c0: dab6 f3bc 4fa1 1ebc 0219 98bd 62ba db3d
000002d0: 7ae3 7ebc 6bfc e23c 85e7 983d f201 17bc
000002e0: 7a00 b63d 2c5f 083d dc91 48bd 1001 ec3d
000002f0: 3b47 c5bd 1b55 98bd 39e8 773d 723a 363d
00000300: 9834 603d e2c4 4e3c 577a f73c 56c8 423d
00000310: eba8 0a3e f42f 853d 3e4d 43bd 9008 b4bd
00000320: 1eeb c73d 7254 843d 0076 e03d ac82 c73d
00000330: a429 083e 79a9 503d 48fb 62bc c973 6abd
00000340: 8688 a5bd b78b 44bc 52c1 c7bd 4675 37bd
00000350: 13f4 12bd 179f c03d 2f53 353d 49da 233e
00000360: 0088 6c3d 73e6 2abc f33a 6d3d a9ec dfbb
00000370: 5b7c 823d fddc 8a3d f40c 053e 92be a53b
00000380: 1e6f ae3d 674b 6fbd cc48 333d 7f6b 9c3c
00000390: 584f 8f3d 518d e2bd 3a96 b7bb cd31 d23d
000003a0: 4d8d 363d 6f95 ec3d 6ed7 a4bd ff56 f93d
000003b0: e3e8 9b3d 1e59 33bd 759f 963d 9b95 6ebd
000003c0: 7a9f 713d 94c7 e43b 4bd3 eb3d abc1 413d
000003d0: cc26 eebd e99b 02bd 2d0f e7ba 8ef1 083e
000003e0: 8634 fc3d ea09 d3bc 9a46 fc3b 954a 983c
000003f0: 9793 d03d 44fd f53c 8318 7fbd 28c5 ab3d

lstm.bias_hh_l0 f4 [256]
-0.00857199 -0.029970352 -0.12772338 0.122299075 0.014133622 0.026507422 -0.049507268 -0.057640184
-0.11152207 -0.07877391 -0.0684671 -0.028559076 0.077962235 0.029026981 0.07164174 -0.01848279
-0.10209352 -0.032828245 -0.038460493 0.108950324 0.1156908 0.043173123 -0.061093155 -0.113261454
0.15351348 -0.06449727 0.07447404 -0.08896844 0.08945465 -0.079595104 0.015457561 -0.08184749
-0.09961949 0.08975263 -0.0869029 0.10108222 -0.052772798 0.07529453 0.10627515 0.07361449
-0.09468639 0.08265146 -0.0777589 -0.08124186 -0.11006165 0.11828322 0.09080571 0.00031921544
0.04374196 0.123297274 0.09678775 -0.02381373 0.041570533 0.057547346 -0.06428008 -0.08539914
0.049294557 0.06617846 0.04511055 -0.03425361 0.07249185 0.043142956 0.033496875 -0.07045098
-0.07617789 0.06791255 0.008465955 -0.0084005045 -0.06672571 -0.0052330005 -0.0026765876 0.12113341
0.083747886 0.08122781 -0.057687707 0.11261058 -0.07588857 -0.07673327 0.0300614 -0.0050158603
0.024823075 -0.061515626 -0.030721756 0.037666097 -0.02157217 -0.055617068 0.10904306 0.06741138
0.07917603 0.13154767 0.032542657 0.11960769 -0.109268606 -0.001570858 0.1339362 0.09122499
-0.0637073 0.03577564 0.0058720484 0.10321137 -0.048276775 0.111138396 0.08229248 0.027001366
0.07237832 0.081597514 -0.0603205 -0.09516242 0.122142255 -0.013748522 0.12541427 0.032313984
-0.053531006 0.03259639 0.054093543 -0.07488069 0.024872467 -0.03999959 0.02805389 -0.024385761
0.06232766 -0.01232293 0.12343777 0.092549 -0.080411956 0.08489647 0.13974094 0.012358707
0.09920374 -0.07765319 0.07171604 0.08690472 -0.012639955 -0.022021277 -0.011070403 0.040305704
-0.10167615 0.009435752 0.0690554 0.092617445 0.028223349 0.010788376 -0.053345516 0.11438753
-0.11766096 0.07544427 -0.003433182 0.010886616 0.119633004 0.052428443 0.03427579 0.055540618
-0.008795828 -0.116048925 -0.085059874 0.059391577 -0.10652629 -0.10440809 0.003233112 0.010309311
-0.058626596 -0.07621396 -0.032503795 0.027157953 -0.10609351 -0.027058296 0.0903352 -0.052769665
-0.016636617 -0.013032511 -0.006324665 -0.07950467 -0.10917986 0.09569356 -0.06660931 -0.09101152
-0.031156952 0.03746549 0.022857413 -0.089870036 -0.03095345 -0.029759372 0.038484026 0.0019208832
0.04629993 -0.053337526 0.111738935 -0.09070966 -0.1196691 0.05554986 0.09848958 -0.08062779
0.10351539 0.13763328 0.15593374 0.19090016 0.022429977 -0.0014007912 0.03123473 0.06554295
0.0472702 0.1356689 0.08525114 0.06772607 -0.09617023 -0.049352568 0.017193539 0.025455672
0.009552324 0.15320385 0.12564328 0.08163351 0.09290096 0.023562253 -0.101491146 0.01423147
0.022894943 -0.0920571 -0.049497418 -0.06948564 -0.0008688987 -0.026934516 0.13831876 -0.011143625
0.022311525 -0.012033972 -0.06611264 -0.083864845 0.14253135 0.00016898746 0.073477454 -0.07317238
-0.024424957 -0.048595168 -0.04690871 0.14289099 -0.032110047 0.117822096 -0.06655229 0.08704517
-0.01635863 0.09428281 -0.048835307 -0.099577054 0.07736354 0.04339325 0.058307484 -0.03309597
-0.017260596 0.15928039 0.10957071 -0.09280106 -0.028182065 -0.04311218 -0.0088957595 0.13813096
00000000: 8871 0cbc 6284 f5bc ebc9 02be f077 fa3d
00000010: b590 673c 1826 d93c 22c8 4abd 1d18 6cbd
00000020: af65 e4bd 3754 a1bd 7b38 8cbd b9f4 e9bc
00000030: aaaa 9f3d fec9 ed3c e8b8 923d 3869 97bc
00000040: 6816 d1bd e976 06bd c088 1dbd 5921 df3d
00000050: 4cef ec3d 4dd6 303d d13c 7abd 9ff5 e7bd
00000060: a332 1d3e 2517 84bd d885 983d 1635 b6bd
00000070: 0034 b73d c202 a3bd b641 7d3c a89f a7bd
00000080: 4e05 ccbd 3ad0 b73d 26fa b1bd 3204 cf3d
00000090: 4a28 58bd 0534 9a3d c9a6 d93d 32c3 963d
000000a0: f0ea c1bd 2b45 a93d 0f40 9fbd 2262 a6bd
000000b0: 0168 e1bd 793e f23d 58f8 b93d 5f5c a739
000000c0: c52a 333d 4883 fc3d a838 c63d 0315 c3bc
000000d0: dd45 2a3d c4b6 6b3d 46a5 83bd bfe5 aebd
000000e0: 17e9 493d 9388 873d d7c5 383d 834d 0cbd
000000f0: 9b76 943d abb6 303d 0534 093d 9a48 90bd
00000100: 2703 9cbd bc15 8b3d cab4 0a3c 45a2 09bc
00000110: 7da7 88bd 9779 abbb b069 2fbb cb14 f83d
00000120: 0384 ab3d c45a a63d f249 6cbd 60a0 e63d
00000130: 776b 9bbd 5526 9dbd 5343 f63c 165c a4bb
00000140: c359 cb3c cff7 7bbd 31ac fbbc c447 1a3d
00000150: 1fb8 b0bc b9ce 63bd f851 df3d fa0e 8a3d
00000160: 0b27 a23d 6fb4 063e 734b 053d e0f4 f43d
00000170: 38c8 dfbd 3fe5 cdba 9226 093e 2bd4 ba3d
00000180: f978 82bd 7a89 123d 506a c03b 7c60 d33d
00000190: debd 45bd 879c e33d f688 a83d f831 dd3c
000001a0: 163b 943d 991c a73d a112 77bd 84e4 c2bd
000001b0: b825 fa3d 7b41 61bc 996c 003e ab5b 043d
000001c0: 5443 5bbd cb83 053d 3191 5d3d 0c5b 99bd
000001d0: 58c1 cb3c 9cd6 23bd 46d1 e53c a6c4 c7bc
000001e0: 4a4b 7f3d 1de6 49bc f1cc fc3d 558a bd3d
000001f0: 06af a4bd 33de ad3d 4018 0f3e 2d7c 4a3c
00000200: 552b cb3d a308 9fbd dcdf 923d 1afb b13d
00000210: d017 4fbc f765 b4bc a360 35bc 9817 253d
00000220: 963b d0bd 6a98 1a3c eb6c 8d3d 37ae bd3d
00000230: a734 e73c bbc1 303c d480 5abd 0244 ea3d
00000240: 3bf8 f0bd 8782 9a3d 3cff 60bb c75d 323c
00000250: 2602 f53d 35bf 563d c564 0c3d 8f7e 633d
00000260: 601c 10bc 0fab edbd df33 aebd 9544 733d
00000270: 752a dabd e9d3 d5bd 9ee2 533b 62e8 283c
00000280: 7122 70bd 1116 9cbd b322 05bd 5b7a de3c
00000290: 8e47 d9bd 5ca9 ddbc a901 b93d 0125 58bd
000002a0: 8449 88bc 5086 55bc 233f cfbb 58d3 a2bd
000002b0: b199 dfbd fcfa c33d 766a 88bd 3f64 babd
000002c0: dd3c ffbc 6a75 193d 783f bb3c c80d b8bd
000002d0: 1792 fdbc edc9 f3bc 6da1 1d3d 25c6 fb3a
000002e0: ffa4 3d3d 7378 5abd 62d7 e43d fcc5 b9bd
000002f0: 1315 f5bd 4088 633d e8b4 c93d 2f20 a5bd
00000300: e0ff d33d bdef 0c3e 18ad 1f3e 557b 433e
00000310: 12bf b73c c19a b7ba fadf ff3c 623b 863d
00000320: 669e 413d caec 0a3e 2698 ae3d f7b3 8a3d
00000330: e6f4 c4bd eb25 4abd 77d9 8c3c 6a88 d03c
00000340: 5a81 1c3c 78e1 1c3e a2a8 003e 782f a73d
00000350: dc42 be3d a005 c13c 97da cfbd 1d2b 693c
00000360: 2d8e bb3c 6f88 bcbd cebd 4abd 7d4e 8ebd
00000370: cec6 63ba c6a5 dcbc 6fa3 0d3e c093 36bc
00000380: a9c6 b63c 232a 45bc 1066 87bd 55c1 abbd
00000390: bdf3 113e 3a32 3139 597b 963d 67db 95bd
000003a0: d916 c8bc ba0b 47bd 5923 40bd 0452 123e
000003b0: d385 03bd b64c f13d 914c 88bd bd44 b23d
000003c0: 8902 86bc 5917 c13d 8807 48bd 0eef cbbd
000003d0: c770 9e3d 1fbd 313d d4d3 6e3d a48f 07bd
000003e0: 1866 8dbc 661a 233e 9c66 e03d 7b0e bebd
000003f0: 13de e6bc 6696 30bd 85bf 11bc 3472 0d3e

lstm.weight_ih_l1 f4 [256, 64]
-0.12801616 0.09499203 -0.04003116 -0.12889098 0.113605075 -0.12510757 0.09270522 -0.0777489
0.0063439445 -0.058892105 -0.13486868 -0.16455728 -0.14987944 0.035497572 -0.0069653126 -0.04386253
0.04227925 0.07683131 0.026140999 -0.13235411 0.09630221 0.075775385 -0.0554654 0.0653357
-0.008734893 -0.036923714 0.03733159 0.08502238 0.010205911 0.07578115 -0.09224854 -0.05197339
-0.07186675 0.03315136 -0.11234974 0.053437363 0.014805964 0.09321166 0.038485344 0.05440176
0.10375659 -0.09936902 0.07542973 -0.08472513 -0.039270557 -0.009866751 -0.047064792 -0.05616242
-0.12797159 0.032891504 0.03346751 0.14977601 0.1375481 -0.084673256 0.061840553 -0.0023624909
0.015433819 0.14646806 0.00039573398 -0.032237526 -0.14391269 -0.029425027 -0.14124863 -0.13242367
0.068053104 -0.02857063 0.096673034 -0.10427637 -0.043778688 0.020517783 0.16939877 -0.018886501
0.0538787 -0.08471397 -0.08824454 0.033268128 -0.06735161 0.100444496 -0.16996461 0.03797786
-0.061161872 0.18945196 -0.04261882 -0.030871429 0.026845334 -0.07999287 0.074823864 -0.059700407
0.037821643 0.020065615 0.14476681 -0.05078435 -0.113151334 0.008648188 0.0016639984 -0.07627328
-0.077160574 -0.012543458 0.015122666 0.1627161 -0.15805714 -0.06697476 -0.16693419 -0.06117702
0.05540924 -0.06859641 -0.10553459 0.05580473 -0.09476365 0.06671561 0.03176269 -0.077072315
0.025539495 -0.05963567 -0.05138301 0.01472619 -0.003473603 0.017332923 0.111586235 0.03831404
-0.026700733 -0.03664299 0.09369843 0.022028064 -0.080363415 0.13706297 -0.038289536 0.008636344
0.009428178 -0.0046667773 -0.085629076 -0.13990557 -0.050756477 0.09747239 0.0076596597 -0.10098935
-0.14742215 -0.037874132 -0.1166437 -0.003955025 -0.086445175 0.1299432 -0.03947725 0.07733186
-0.13891074 0.050093424 0.07216802 0.10476269 0.04377707 0.06841332 0.050055794 0.0182563
-0.113380626 -0.09749075 -0.07100288 -0.041267734 -0.096167944 -0.11714248 0.06518941 -0.046692926
-0.09025538 0.072469875 -0.102119684 0.07179155 -0.1274397 0.13498439 -0.00450127 -0.08779434
0.06303578 0.100532554 0.10211539 -0.14460766 -0.010674102 0.03127198 -0.04849524 -0.039407086
-0.100495026 0.005719709 -0.07824159 -0.10695205 0.08606972 0.064018264 0.12562205 -0.14800979
-0.01058509 0.09081085 0.11273749 0.15031567 -0.015270132 0.14603761 0.023140738 0.051788628
-0.018716764 0.07245352 0.005385486 -0.003441486 0.003839287 -0.11279704 0.032607336 -0.058153138
0.06764195 0.019299591 -0.018313184 0.07268971 0.072114825 0.09432608 -0.014291519 -0.04322897
0.018207368 0.10270161 0.078151226 -0.007064643 -0.11726333 0.086444385 -0.050504602 -0.07395625
0.10693688 0.026282998 -0.013530075 -0.08291085 -0.14015476 -0.05762142 -0.0533557 0.05764945
-0.029528981 -0.04666638 0.070749715 0.06330256 -0.025551615 0.11912027 0.035778914 -0.010947315
0.13184199 0.0021417618 0.092294134 -0.024954839 0.014775948 -0.12738219 -0.06033759 0.082954586
0.040682234 0.12921806 0.057549957 0.098000176 0.06756811 0.021972204 -0.02045819 -0.1334237
-0.019170796 0.13664423 0.095596306 0.055671517 -0.06763048 0.0732922 -0.06020795 -0.11695348
00000000: ab16 03be 2e8b c23d b7f7 23bd fffb 03be
00000010: c7a9 e83d 331c 00be 3cdc bd3d d13a 9fbd
00000020: dde0 cf3b d938 71bd 041b 0abe b481 28be
00000030: ff79 19be e765 113d 473d e4bb 32a9 33bd
00000040: 022d 2d3d bc59 9d3d a625 d63c d687 07be
00000050: 183a c53d 2030 9b3d b02f 63bd b9ce 853d
00000060: cc1c 0fbc 523d 17bd 02e9 183d 3720 ae3d
00000070: b136 273c 2633 9b3d cdec bcbd 0de2 54bd
00000080: e02e 93bd b8c9 073d 9f17 e6bd 23e1 5a3d
00000090: b794 723c c1e5 be3d cfa2 1d3d 61d4 5e3d
000000a0: 567e d43d fc81 cbbd e77a 9a3d 5e84 adbd
000000b0: 2ada 20bd 27a8 21bc 03c7 40bd 910a 66bd
000000c0: fc0a 03be 3eb9 063d 3a15 093d e25e 193e
000000d0: 69d9 0c3e 2c69 adbd 854c 7d3d 05d4 1abb
000000e0: 21de 7c3c b9fb 153e 847a cf39 7f0b 04bd
000000f0: d95d 13be c10c f1bc 7ba3 10be 129a 07be
00000100: 6d5f 8b3d f40c eabc 83fc c53d d98e d5bd
00000110: 4851 33bd e914 a83c df76 2d3e ddb7 9abc
00000120: e9af 5c3d 857e adbd 8eb9 b4bd 2944 083d
00000130: a4ef 89bd d8b5 cd3d 340b 2ebe ac8e 1b3d
00000140: df84 7abd b2ff 413e 1291 2ebd 14e6 fcbc
00000150: bfea db3c 4dd3 a3bd 413d 993d 6a88 74bd
00000160: deea 1a3d a560 a43c c03d 143e 4003 50bd
00000170: e3bb e7bd 21b1 0d3c 851a da3a 2a35 9cbd
00000180: 5d06 9ebd 1383 4dbc 0fc5 773c 0d9f 263e
00000190: bbd9 21be 102a 89bd ccf0 2abe c194 7abd
000001a0: cdf4 623d 467c 8cbd 8522 d8bd 8093 643d
000001b0: 7213 c2bd 32a2 883d 9819 023d 17d8 9dbd
000001c0: 3438 d13c 8844 74bd fe76 52bd 1e46 713c
000001d0: 63a5 63bb c6fd 8d3c 5387 e43d 2fef 1c3d
000001e0: 7fbb dabc f616 16bd f6e4 bf3d 3374 b43c
000001f0: 9395 a4bd 3c5a 0c3e 7dd5 1cbd 747f 0d3c
00000200: a578 1a3c c4eb 98bb 4c5e afbd 6843 0fbe
00000210: 06e6 4fbd 9b9f c73d e2fd fa3b 81d3 cebd
00000220: d5f5 16be e821 1bbd e4e2 eebd 2899 81bb
00000230: 2b0a b1bd d50f 053e e6b2 21bd 2b60 9e3d
00000240: 9e3e 0ebe c32e 4d3d d4cc 933d d28d d63d
00000250: 964f 333d 481c 8c3d 4e07 4d3d 3c8e 953c
00000260: 1a34 e8bd 3ba9 c7bd f569 91bd 5b08 29bd
00000270: b3f3 c4bd 66e8 efbd 0682 853d 1541 3fbd
00000280: d0d7 b8bd 166b 943d 2024 d1bd 7307 933d
00000290: 8d7f 02be 5939 0a3e 647f 93bb 85cd b3bd
000002a0: e718 813d 03e4 cd3d e021 d13d 0814 14be
000002b0: 6ee2 2ebc 0c17 003d f2a2 46bd 5369 21bd
000002c0: 56d0 cdbd 666c bb3b 203d a0bd ad09 dbbd
000002d0: 5245 b03d 021c 833d 11a3 003e e18f 17be
000002e0: 166d 2dbc 0afb b93d eae2 e63d 5aec 193e
000002f0: 932f 7abc e28a 153e a591 bd3c 5020 543d
00000300: e653 99bc 8362 943d bb78 b03b 8e8a 61bb
00000310: 8c9c 7b3b 2202 e7bd 458f 053d fc31 6ebd
00000320: dd87 8a3d 2d1a 9e3c 8805 96bc 58de 943d
00000330: f0b0 933d 082e c13d fa26 6abc dc10 31bd
00000340: 9e27 953c 3955 d23d c00d a03d 857e e7bb
00000350: c227 f0bd c109 b13d eadd 4ebd 6076 97bd
00000360: b901 db3d 714f d73c 3fad 5dbc 2acd a9bd
00000370: bb84 0fbe 7004 6cbd 828b 5abd d421 6c3d
00000380: c3e6 f1bc 3f25 3fbd 3ae5 903d c6a4 813d
00000390: 9f51 d1bc 54f5 f33d e98c 123d 5e5c 33bc
000003a0: 9601 073e cd5c 0c3b b504 bd3d 176e ccbc
000003b0: d116 723c 7a70 02be 8c24 77bd 18e4 a93d
000003c0: 6aa2 263d bd51 043e 81b9 6b3d 51b4 c83d
000003d0: 2661 8a3d 0dff b33c ef97 a7bc 39a0 08be
000003e0: 130c 9dbc 77ec 0b3e ffc7 c33d d107 643d
000003f0: d981 8abd 391a 963d 9d9c 76bd 4e85 efbd

lstm.weight_hh_l1 f4 [256, 64]
-0.065877356 0.054316122 -0.053481203 0.04699844 0.023608495 -0.027653053 0.08493266 -0.030864665
-0.0911358 -0.06792063 -0.15598412 0.14025122 -0.17354895 -0.08117709 -0.07263199 -0.0026949581
0.0336593 -0.107776 0.07139822 0.05135677 0.07333469 0.01204174 0.030761447 0.04612422
0.111870684 -0.041323934 0.018450234 0.11115662 0.073661275 0.111915976 0.057931665 0.024232257
-0.017152922 0.1463387 -0.022267237 0.03474255 0.1449003 0.026925417 -0.0134499455 0.10648992
-0.04640585 0.07049531 -0.13270682 -0.039312106 0.07316346 -0.015921522 -0.022237977 0.09745085
0.1070268 0.08293632 0.16303675 0.075055294 0.09617998 -0.0013955658 0.022152381 0.079376474
-0.02653318 -0.02435896 -0.09530083 0.10771861 -0.022587975 0.08945254 0.027262539 -0.07485298
-0.064948104 0.106380984 -0.042451967 -0.064140856 -0.05756905 -0.09589758 -0.007727753 -0.056968972
-0.076670274 0.08885619 0.06701863 -0.018267998 -0.04825372 0.04322622 0.044820953 -0.11031701
0.10993767 0.030284986 0.10280633 0.18600132 -0.021338984 -0.048957974 -0.058751907 -0.082619846
-0.075290844 0.07819728 -0.085149944 0.06758511 0.16009177 0.1061626 -0.021835528 0.1235375
-0.0080250595 0.019092858 -0.053839214 -0.1330587 0.020785885 0.12792659 -0.009979075 0.10605355
-0.017618384 0.047759857 -0.022970257 -0.06656353 0.10855641 0.02608682 0.14994916 0.033705536
-0.03301679 0.03652631 -0.023632132 0.06534376 0.12501879 0.08171389 0.021412833 -0.098309964
-0.031577528 -0.04239189 -0.049926188 -0.09420036 0.16082747 -0.110715814 -0.040598556 -0.14375316
-0.041345064 0.035018146 0.06544207 -0.10075358 -0.033268884 0.027309388 0.08388711 -0.052515056
-0.043754466 0.11901667 -0.18102758 -0.035060875 0.07225843 0.004170813 0.021853024 -0.068015
0.08171161 0.031080587 0.15345043 0.1384261 0.0054435204 0.048964538 -0.12021105 -0.11274165
0.055286236 -0.06336907 -0.11656705 0.057307806 -0.06041524 0.11375615 -0.05960324 0.09243831
-0.09811412 -0.0439713 -0.17295825 0.02874791 0.1127369 -0.104218535 0.09934126 0.08254798
-0.07382288 -0.09137241 -0.1531711 0.069628015 -0.08145809 -0.043761227 0.15694697 0.08074431
0.13620904 0.06829509 -0.122429095 -0.06855445 0.09876887 -0.009150212 0.0894245 -0.014155841
-0.04006917 0.09814077 -0.09404087 0.0803697 0.1411141 -0.09012247 -0.04411197 -0.053579904
0.16115074 -0.12117023 -0.074579895 0.029997392 -0.1247513 0.02466715 0.10039957 0.13873427
0.03666157 0.13640286 -0.023363035 0.02723099 0.023211438 0.030526644 -0.05454474 -0.008704124
0.16015036 0.11558024 0.044595707 0.111664474 0.113117486 0.054111056 -0.058905687 0.028102716
-0.0352031 -0.07757224 -0.032484166 -0.0059393044 0.052846417 0.07091539 0.11099037 0.117125414
0.0667381 0.0306247 -0.1220115 0.069804706 0.106825724 -0.09873442 0.08385587 0.054577384
0.06070649 0.032934766 -0.08833119 0.051982194 -0.018456995 0.06515103 -0.061640605 0.12633565
-0.025263088 -0.09185777 0.09967917 -0.10803529 -0.030449703 0.06419594 0.094167165 -0.08433675
-0.09379968 0.04598368 -0.105087526 -0.09843835 0.04919695 -0.04710807 0.020328956 0.0970144
00000000: b5ea 86bd 957a 5e3d 1b0f 5bbd 7081 403d
00000010: 9a66 c13c a888 e2bc 2df1 ad3d e5d7 fcbc
00000020: 68a5 babd f919 8bbd 4dba 1fbe 049e 0f3e
00000030: d1b6 31be 2d40 a6bd 15c0 94bd e59d 30bb
00000040: 56de 093d aab9 dcbd 3b39 923d 7a5b 523d
00000050: 7f30 963d b84a 453c 6eff fb3c c0ec 3c3d
00000060: 751c e53d 4943 29bd f224 973c 15a6 e33d
00000070: b9db 963d 3434 e53d c149 6d3d ba82 c63c
00000080: 4984 8cbc d0d9 153e c869 b6bc 344e 0e3d
00000090: bf60 143e b192 dc3c 295d 5cbc 6317 da3d
000000a0: 1014 3ebd d85f 903d 4ce4 07be bb05 21bd
000000b0: b9d6 953d da6d 82bc 6b2c b6bc 5094 c73d
000000c0: de30 db3d 84da a93d 1bf3 263e 97b6 993d
000000d0: 02fa c43d 6beb b6ba e978 b53c 2290 a23d
000000e0: 1d5c d9bc 718c c7bc 152d c3bd 939b dc3d
000000f0: 6b0a b9bc e532 b73d b055 df3c 854c 99bd
00000100: 8303 85bd 46de d93d 1de2 2dbd 485c 83bd
00000110: 86cd 6bbd f365 c4bd 1739 fdbb 4c58 69bd
00000120: 4e05 9dbd 3cfa b53d 1041 893d c5a6 95bc
00000130: b1a5 45bd fa0d 313d 2d96 373d e2ed e1bd
00000140: 0027 e13d 3818 f83c 208c d23d 2177 3e3e
00000150: 18cf aebc 2888 48bd d7a5 70bd 9834 a9bd
00000160: 1632 9abd e525 a03d 1863 aebd 106a 8a3d
00000170: 19ef 233e c76b d93d 6ce0 b2bc 3b01 fd3d
00000180: 8a7b 03bc a068 9c3c 8286 5cbd 8a40 08be
00000190: 2947 aa3c 30ff 023e 467f 23bc 9b32 d93d
000001a0: 6e54 90bc d79f 433d 1f2c bcbc 7652 88bd
000001b0: d352 de3d 07b4 d53c 468c 193e d10e 0a3d
000001c0: 9d3c 07bd 9d9c 153d 2c98 c1bc f3d2 853d
000001d0: ed04 003e 9d59 a73d f769 af3c bc56 c9bd
000001e0: 7057 01bd 1ea3 2dbd 677f 4cbd 1eec c0bd
000001f0: f5af 243e f9be e2bd ac4a 26bd 0734 13be
00000200: 7159 29bd 306f 0f3d 7e06 863d e557 cebd
00000210: f444 08bd f0b7 df3c 01cd ab3d 071a 57bd
00000220: e237 33bd 03bf f33d 4b5f 39be fe9b 0fbd
00000230: 3afc 933d 51ab 883b 1d05 b33c 734b 8bbd
00000240: 6b58 a73d b79c fe3c 1c22 1d3e 92bf 0d3e
00000250: 8f5f b23b 0a8f 483d 3631 f6bd 18e5 e6bd
00000260: d273 623d a5c7 81bd b5ba eebd 97bb 6a3d
00000270: f875 77bd fcf8 e83d 8722 74bd 4c50 bd3d
00000280: 0ef0 c8bd 401b 34bd f81b 31be bd80 eb3c
00000290: 9be2 e63d 8770 d5bd 6e73 cb3d ea0e a93d
000002a0: 7330 97bd 7521 bbbd e3d8 1cbe 2299 8e3d
000002b0: 80d3 a6bd f93e 33bd b5b6 203e 465d a53d
000002c0: 627a 0b3e 4cde 8b3d 1bbc fabd 4766 8cbd
000002d0: 5547 ca3d c5ea 15bc 3124 b73d e7ed 67bc
000002e0: 921f 24bd 07fe c83d 8098 c0bd df98 a43d
000002f0: 3780 103e 2192 b8bd c1ae 34bd 9a76 5bbd
00000300: b304 253e 1928 f8bd 58bd 98bd 17bd f53c
00000310: 9c7d ffbd c312 ca3c 4a9e cd3d 5b10 0e3e
00000320: 712a 163d 31ad 0b3e d663 bfbc 8613 df3c
00000330: ea25 be3c 0313 fa3c 4e6a 5fbd be9b 0ebc
00000340: 75fe 233e 55b5 ec3d fda9 363d 58b0 e43d
00000350: 24aa e73d 8ea3 5d3d 1747 71bd ab37 e63c
00000360: 2031 10bd 32de 9ebd 1e0e 05bd 7f9e c2bb
00000370: 7c75 583d 173c 913d eb4e e33d 73df ef3d
00000380: fcad 883d a7e0 fa3c 2ae1 f9bd c5f5 8e3d
00000390: 72c7 da3d 4635 cabd a0bc ab3d 898c 5f3d
000003a0: 5ea7 783d 9be6 063d fce6 b4bd 48eb 543d
000003b0: 2033 97bc e76d 853d dc7a 7cbd 225e 013e
000003c0: 89f4 cebc ed1f bcbd 9824 cc3d 9b41 ddbd
000003d0: a871 f9bc 2979 833d b7da c03d bfb8 acbd
000003e0: 0c1a c0bd 6259 3c3d 2138 d7bd 0c9a c9bd
000003f0: be82 493d 64f4 40bd e988 a63c 7caf c63d

lstm.bias_ih_l1 f4 [256]
0.054397587 0.15721282 0.076637976 0.009686771 -0.047474325 -0.06245933 0.01448941 -0.04589057
0.11447532 0.0666667 0.027696766 0.13826707 -0.02704801 -0.0284669 0.021857215 0.0959781
0.07096225 0.052755147 0.13788405 -0.054452617 0.012959687 0.059764106 0.12784018 0.13910033
0.114847146 0.122397766 -0.059348196 0.06633739 0.034638144 0.008822586 -0.024796892 0.064301774
0.010802513 -0.07376542 0.1104088 0.048169926 0.11738043 0.0860671 0.065501556 0.100950606
0.0011162852 0.114369355 0.15325727 0.110970065 0.09648099 0.010416227 0.10124582 -0.079618216
-0.05409824 -0.0569128 0.113997616 -0.051064234 0.12051067 -0.032422863 0.053740725 -0.057874374
0.0071598 0.1409427 0.03783004 0.024790406 -0.059154343 0.11450008 -0.031024273 0.09806068
0.15065512 0.012035692 0.07462435 0.117742755 0.17087258 -0.061221585 0.10664567 0.06189094
0.051527414 0.08839624 -0.052277274 0.13081576 0.1947524 0.070873216 -0.022078272 0.11024376
0.08857334 0.13934933 0.12636852 0.06967016 0.080112554 0.025937965 0.15099925 0.11933699
0.02014664 0.01889595 0.00045589698 0.048252687 0.11280991 -0.051376324 0.08301836 0.122609094
-0.02379177 0.1493085 0.1397573 0.046673004 -0.07240525 0.11575867 0.029718243 0.15140113
0.01891884 -0.04008664 -0.016865097 -0.06969753 -0.0061106333 0.15444873 0.035574976 -0.038605206
-0.00060833304 0.08443014 -0.02783033 -0.032338306 0.022613287 -0.03368223 0.032458533 -0.04599344
0.02564451 0.03375662 0.1327209 0.07549372 0.074468665 -0.007690902 0.04577652 0.09686261
0.02899327 -0.07665761 -0.01650806 -0.019387072 -0.040323634 -0.031740546 -0.099932924 0.09250767
0.04989532 0.06512646 -0.14461775 0.056988392 -0.033519346 0.09036264 0.07156625 0.074720606
0.12147157 -0.112775564 0.004805271 0.028893279 0.09862017 -0.031857114 0.028010497 0.095417306
0.10461629 0.056291845 -0.08706517 -0.05081355 -0.03694379 -0.09856524 0.07924063 0.042785853
0.028678864 0.11914034 -0.11709611 0.05702294 -0.039365448 -0.06576375 0.14815918 0.032369044
-0.124405906 -0.03871458 -0.050552886 -0.059139904 0.062300432 0.05275747 -0.02623348 -0.005571227
0.08874287 -0.06261732 -0.08932769 0.007983593 -0.10396668 -0.01410846 0.043542795 0.07598065
0.09818036 0.037849907 0.08686556 -0.084158234 0.03563819 -0.13496335 -0.10071239 0.07126947
0.11424511 0.0022074059 0.17527907 0.08198817 0.034623813 0.1597744 -0.012882604 -0.008372043
0.052071773 0.16969965 0.19939493 0.1342466 0.028785354 0.18436268 -0.01905242 0.0795909
0.06290352 0.19861838 0.041545317 0.08826787 0.11826199 -0.048262525 0.1014172 -0.037345365
0.008387185 0.19794247 0.089573026 0.09508048 0.18323345 0.014344172 0.06041422 0.06311209
-0.051863063 0.115445614 0.006228606 0.12414274 0.11415578 0.20012154 0.08253062 0.018909393
0.16946954 0.04098336 0.0599677 0.059931614 -0.003022878 0.15663658 0.16698602 0.008291978
0.19029588 -0.0067877974 0.1424501 0.10028353 -0.030828666 -0.009588218 -0.041759983 0.0016205438
0.00923229 0.1194813 0.0615387 0.15250356 0.14253165 0.02935593 0.1359669 -0.007969672
00000000: 01d0 5e3d 66fc 203e 5ff4 9c3d 43b5 1e3c
00000010: 7074 42bd 5bd5 7fbd fe64 6d3c c0f7 3bbd
00000020: 0972 ea3d 8d88 883d 54e4 e23c e295 0d3e
00000030: ca93 ddbc 6b33 e9bc e70d b33c 2b90 c43d
00000040: a854 913d c815 583d 7a31 0d3e b509 5fbd
00000050: de54 543c 35cb 743d 89e8 023e 5170 0e3e
00000060: fb34 eb3d aeab fa3d 1817 73bd e6db 873d
00000070: bae0 0d3d 9c8c 103c da22 cbbc a6b0 833d
00000080: 06fd 303c 5312 97bd 021e e23d d44d 453d
00000090: 2765 f03d f343 b03d ae25 863d 31bf ce3d
000000a0: 5150 923a 7b3a ea3d 79ef 1c3e 4644 e33d
000000b0: d397 c53d d3a8 2a3c f859 cf3d e00e a3bd
000000c0: 1e96 5dbd 651d 69bd 9577 e93d bb28 51bd
000000d0: 4cce f63d d6cd 04bd 3c1f 5c3d ae0d 6dbd
000000e0: c19c ea3b 4853 103e acf3 1a3d 4015 cb3c
000000f0: d34b 72bd 057f ea3d 9e26 febc 0ad4 c83d
00000100: 5645 1a3e 5a31 453c a7d4 983d 1d23 f13d
00000110: 39f9 2e3e 7cc3 7abd 0c69 da3d 5b81 7d3d
00000120: 690e 533d 1609 b53d b220 56bd 91f4 053e
00000130: 2c6d 473e fa25 913d 7edd b4bc 7bc7 e13d
00000140: f065 b53d 97b1 0e3e c066 013e 3baf 8e3d
00000150: 0d12 a43d db7b d43c 8c9f 1a3e f466 f43d
00000160: 910a a53c aecb 9a3c 7505 ef39 9ca4 453d
00000170: e208 e73d fb6f 52bd 8805 aa3d 7a1a fb3d
00000180: f5e6 c2bc 54e4 183e 8a1c 0f3e 312c 3f3d
00000190: 3449 94bd e212 ed3d ac73 f33c e608 1b3e
000001a0: affb 9a3c e331 24bd ac28 8abc 94bd 8ebd
000001b0: b53b c8bb cf27 1e3e 11b7 113d 7e20 1ebd
000001c0: 8a78 1fba b6e9 ac3d 6ffc e3bc 2c75 04bd
000001d0: 803f b93c 61f6 09bd 3df3 043d 9e63 3cbd
000001e0: 6f14 d23c 6244 0a3d fde7 073e 749c 9a3d
000001f0: 0783 983d f603 fcbb 2980 3b3d e75f c63d
00000200: 4b83 ed3c aafe 9cbd e93b 87bc a3d1 9ebc
00000210: 652a 25bd 6002 02bd a2a9 ccbd a974 bd3d
00000220: 095f 4c3d 0561 853d ad16 14be a96c 693d
00000230: 954b 09bd 0c10 b93d 5391 923d 1e07 993d
00000240: 16c6 f83d e0f6 e6bd 8975 9d3b 99b1 ec3c
00000250: 5ff9 c93d 9b7c 02bd 4576 e53c 266a c33d
00000260: 1141 d63d 4792 663d 394f b2bd de21 50bd
00000270: 5f52 17bd 93dc c9bd e948 a23d 3840 2f3d
00000280: f0ef ea3c daff f33d 16d0 efbd e390 693d
00000290: aa3d 21bd 25af 86bd 0ab7 173e 6795 043d
000002a0: 86c8 febd 2e93 1ebd 8b10 4fbd af3c 72bd
000002b0: bd2e 7f3d 3818 583d 98e7 d6bc d78e b6bb
000002c0: d2be b53d 823d 80bd 70f1 b6bd 9ecd 023c
000002d0: 7cec d4bd 2c27 67bc ee59 323d be9b 9b3d
000002e0: c912 c93d 8108 1b3d 92e6 b13d 275b acbd
000002f0: 5af9 113d d533 0abe 4c42 cebd baf5 913d
00000300: 57f9 e93d 20aa 103b 5b7c 333e 6ae9 a73d
00000310: b3d1 0d3d e69b 233e 8f11 53bc e52a 09bc
00000320: 3649 553d bfc5 2d3e 2f2e 4c3e f177 093e
00000330: 43cf eb3c 92c9 3c3e d213 9cbc 8e00 a33d
00000340: 90d3 803d 9e62 4b3e 6c2b 2a3d c9c5 b43d
00000350: 5833 f23d edae 45bd d2b3 cf3d 74f7 18bd
00000360: 676a 093c 6eb1 4a3e 1072 b73d 8eb9 c23d
00000370: 8da1 3b3e d103 6b3c e774 773d e940 813d
00000380: 5d6e 54bd c06e ec3d 5619 cc3b 8d3e fe3d
00000390: 81ca e93d a9ec 4c3e d005 a93d dfe7 9a3c
000003a0: 6c89 2d3e 2bde 273d b1a0 753d da7a 753d
000003b0: 7a1b 46bb 5765 203e 62fe 2a3e 14db 073c
000003c0: ecdc 423e 2c6c debb 70de 113e 7461 cd3d
000003d0: 668c fcbc e717 1dbc 840c 2bbd 6d68 d43a
000003e0: 0843 173c 9db2 f43d 0110 7c3d e529 1c3e
000003f0: d1f3 113e d97b f03c e83a 0b3e 3a93 02bc

lstm.bias_hh_l1 f4 [256]
0.09495567 0.023846595 -0.05907346 0.06746987 -0.03423698 0.16337201 0.049726844 -0.083334714
0.041030325 -0.090905875 0.043750696 0.1197589 0.03430045 -0.047866374 0.093484305 -0.011480865
0.15437211 0.12289804 -0.04450874 -0.03946533 0.13361569 0.008975279 0.058372498 0.09378878
0.13989568 0.124931395 0.14779043 0.10684331 0.09974435 0.11002866 0.0118107535 -0.049744323
-0.059616607 0.053095225 0.10204606 0.006798098 -0.05172752 0.1115662 0.005017993 0.031741176
-0.023128295 0.03421377 0.107676074 0.09218042 0.15266626 0.13260175 -0.03635591 -0.026828432
0.06003619 0.01772965 0.11744139 0.13873549 -0.018930277 0.089170724 -0.032798417 0.026961524
0.04045562 -0.048412964 0.03219349 0.016181149 0.14711583 -0.06562958 0.15636697 -0.056699887
0.028561592 -0.04091082 0.08852957 0.04240369 0.122597374 0.04094946 -0.0013791707 0.012585905
0.063876264 0.060590733 0.050851077 0.058868483 0.10084153 0.15680358 -0.018871006 0.014468796
-0.04688102 0.11112437 0.037991952 0.12376204 0.005521453 0.16613527 0.021570483 -0.0007951253
0.08379745 0.017985785 0.055789027 0.11070158 0.10120013 0.15701455 0.030162746 -0.007233768
0.10622762 0.14261277 -0.03651831 0.09687467 -0.0718462 0.15537618 -0.022209188 0.0047603534
-0.060958836 -0.025938638 -0.035532955 -0.02302849 -0.00586176 0.041542016 0.009069878 0.048029087
0.09036663 0.081785075 0.047161773 0.10383911 0.13669734 0.12665927 0.095687464 0.052635863
0.07825549 0.10097201 0.17072408 0.009051962 -0.008431595 0.09681031 -0.013535322 -0.045100305
0.05994447 -0.098630674 0.035864286 -0.014201701 0.10398535 0.08809105 0.11061902 0.10914244
0.042355 0.062794454 -0.1466687 -0.00989931 -0.03386113 0.120584466 -0.12463435 0.06916227
0.042973064 0.040598586 0.113928355 0.1373603 0.025770819 0.043018475 0.020738935 -0.14294513
0.051229693 -0.07844601 -0.016879817 0.06255269 0.09382874 0.05982016 -0.08948633 0.15183514
-0.011606782 -0.020722786 0.09763928 0.05020155 0.081919275 -0.061897457 0.11908052 0.10759814
-0.08975576 0.005720535 -0.113081016 -0.06342641 0.0313374 -0.13165207 0.15009448 0.028264012
-0.11204947 -0.041360527 0.000502807 -0.008465925 0.04496917 0.0971079 0.08626959 0.0421796
0.07287115 0.15851824 0.09429608 0.0155277215 0.083231024 -0.04641454 -0.063958295 0.033329193
0.16667476 0.15937623 0.06709296 0.15901889 -0.01660085 -0.022212667 -0.0023155324 -0.0703627
-0.03819332 -0.0072074714 0.057645813 0.15365379 0.085192904 0.17120865 0.04399414 0.015500205
-0.06649815 0.16497123 -0.012722727 0.1267474 0.1356262 0.09772282 0.042579565 0.19294645
0.021347044 0.018027455 0.018854344 -0.03166719 0.016537916 0.18479693 0.009231352 0.13053873
0.14223483 0.12039238 0.016888393 0.1850494 -0.021406885 0.12221952 0.191338 0.03538811
-0.04770464 0.027724134 0.14642982 -0.0059913145 -0.0116322925 0.079544276 0.20001386 0.13418627
0.080473825 0.018793348 0.059675712 0.2072925 0.043749496 0.11933634 -0.0357091 0.05473389
0.10433133 0.08777645 -0.06490673 0.15240997 0.024772445 0.023225902 0.19738641 0.1652063
00000000: 1e78 c23d ef59 c33c 03f7 71bd a52d 8a3d
00000010: 133c 0cbd fe4a 273e 60ae 4b3d 64ab aabd
00000020: 6a0f 283d dc2c babd ee33 333d 2744 f53d
00000030: a17e 0c3d 880f 44bd b374 bf3d 3d1a 3cbc
00000040: b913 1e3e f8b1 fb3d cc4e 36bd 66a6 21bd
00000050: 8dd2 083e 0c0d 133c 0018 6f3d 5514 c03d
00000060: d040 0f3e 08dc ff3d 6056 173e aad0 da3d
00000070: c446 cc3d b556 e13d e481 413c b4c0 4bbd
00000080: 8b30 74bd 617a 593d 86fd d03d 94c2 de3b
00000090: 3ce0 53bd d27c e43d fa6d a43b 0903 023d
000000a0: 8d77 bdbc bd23 0c3d 4685 dc3d 17c9 bc3d
000000b0: 8b54 1c3e c1c8 073e efe9 14bd 4dc7 dbbc
000000c0: 82e8 753d c53d 913c 1d85 f03d ad10 0e3e
000000d0: ab13 9bbc 249f b63d a257 06bd 6ade dc3c
000000e0: cbb4 253d ac4c 46bd 52dd 033d 548e 843c
000000f0: 88a5 163e cd68 86bd aa1e 203e 243e 68bd
00000100: 00fa e93c 1b92 27bd fe4e b53d 7eaf 2d3d
00000110: 5514 fb3d 9fba 273d 4ac5 b4ba 1d35 4e3c
00000120: 8fd1 823d fd2d 783d 3849 503d 1420 713d
00000130: 0186 ce3d 1e91 203e 5e97 9abc 870e 6d3c
00000140: 5006 40bd 2c95 e33d 739d 1b3d f476 fd3d
00000150: 4eed b43b 5d1f 2a3e 95b4 b03c f56f 50ba
00000160: ff9d ab3d ed56 933c 0983 643d 83b7 e23d
00000170: 0442 cf3d 6cc8 203e dd17 f73c 3e09 edbb
00000180: de8d d93d 1509 123e 3994 15bd 3a66 c63d
00000190: 1a24 93bd ef1a 1f3e 0bf0 b5bc bdfc 9b3b
000001a0: f9af 79bd 447d d4bc 018b 11bd 3ea6 bcbc
000001b0: 0214 c0bb f627 2a3d d399 143c 26ba 443d
000001c0: 2412 b93d ef7e a73d b42c 413d 99a9 d43d
000001d0: 63fa 0b3e f8b2 013e caf7 c33d b498 573d
000001e0: 6a44 a03d 6aca ce3d 4bd2 2e3e ae4e 143c
000001f0: ac24 0abc 7c44 c63d 41c3 5dbc 19bb 38bd
00000200: 5588 753d e1fe c9bd 6ee6 123d 40ae 68bc
00000210: 45f6 d43d 1569 b43d 3a8c e23d 1286 df3d
00000220: 707c 2d3d 619a 803d 5230 16be b730 22bc
00000230: f8b1 0abd fdf4 f63d 4b40 ffbd f3a4 8d3d
00000240: 8604 303d b44a 263d 4553 e93d 2ea8 0c3e
00000250: 531d d33c 2434 303d b3e4 a93c 3560 12be
00000260: 3ad6 513d 4da8 a0bd 8b47 8abc a01b 803d
00000270: 4829 c03d fc05 753d 9c44 b7bd ac7a 1b3e
00000280: 5f2a 3ebc d5c2 a9bc 1af7 c73d 24a0 4d3d
00000290: 4bc5 a73d 3088 7dbd 7de0 f33d 6a5c dc3d
000002a0: ded1 b7bd 5373 bb3b 0597 e7bd b5e5 81bd
000002b0: a55b 003d cdcf 06be 5eb2 193e ee89 e73c
000002c0: 317a e5bd a869 29bd cece 033a aab4 0abc
000002d0: 9831 383d 82e0 c63d 1cae b03d 84c4 2c3d
000002e0: 783d 953d 9b52 223e 4e1e c13d fc67 7e3c
000002f0: 0775 aa3d 2c1d 3ebd 91fc 82bd 3184 083d
00000300: caac 2a3e 8633 233e 0968 893d d9d5 223e
00000310: 81fe 87bc 57f7 b5bc 30c0 17bb 521a 90bd
00000320: 9970 1cbd a72c ecbb 041e 6c3d 6b57 1d3e
00000330: 9e79 ae3d 5251 2f3e 3333 343d 92f4 7d3c
00000340: 2f30 88bd 38ee 283e fc72 50bc 12ca 013e
00000350: 98e1 0a3e e722 c83d e967 2e3d c193 453e
00000360: ffdf ae3c 50ae 933c 6d74 9a3c 75b5 01bd
00000370: 867a 873c 683b 3d3e 193f 173c f2ab 053e
00000380: 02a6 113e 4890 f63d 8759 8a3c 977d 3d3e
00000390: 7e5d afbc 3a4e fa3d 1cee 433e 1ff3 103d
000003a0: f165 43bd b91d e33c b3f1 153e ca52 c4bb
000003b0: 5f95 3ebc 1ce8 a23d 6fd0 4c3e 2068 093e
000003c0: 76cf a43d 82f4 993c 856e 743d 7c44 543e
000003d0: ac32 333d 9c66 f43d b543 12bd a530 603d
000003e0: aaab d53d 24c4 b33d d2ed 84bd 5c11 1c3e
000003f0: 95ef ca3c 3f44 be3c aa1f 4a3e d72b 293e
